…
0-09-09_22-01-52'),\n '_save_dir': PosixPath('data/saved/models/configs-data_loader_charades/2020-09-09_22-01-52'),\n '_web_log_dir': PosixPath('data/saved/web/configs-data_loader_charades/2020-09-09_22-01-52'),\n 'cfg_fname': PosixPath('configs/data_loader_charades.json'),\n 'log_levels': {0: 30, 1: 20, 2: 10},\n 'log_path': 'data/saved/log/configs-data_loader_charades/2020-09-09_22-01-52/info.log',\n 'resume': None}\n1/1 Setting experiment random seed to 0\ntrn_config is {}\nPerforming Conventional TRN (sum) segments\nCENet(\n  (pooling): ModuleDict(\n    (audio): NetVLAD(\n      (batch_norm): BatchNorm1d(8, eps=1e-05, momentum=0.1, affine=True, track_running_stats=True)\n    )\n  )\n  (text_pooling): NetVLAD(\n    (batch_norm): BatchNorm1d(29, eps=1e-05, momentum=0.1, affine=True, track_running_stats=True)\n  )\n  (ce): CEModule(\n    (non_lin): Mish()\n    (moe_fc): Linear(in_features=8400, out_features=3, bias=True)\n    (trn_list): ModuleList()\n    (video_dim_reduce): ModuleList(\n      (0): ReduceDim(\n        (fc): Linear(in_features=1024, out_features=300, bias=True)\n      )\n      (1): ReduceDim(\n        (fc): Linear(in_features=1024, out_features=300, bias=True)\n      )\n      (2): ReduceDim(\n        (fc): Linear(in_features=2048, out_features=300, bias=True)\n      )\n    )\n    (g_reason_1): Linear(in_features=600, out_features=300, bias=True)\n    (g_reason_shared): Sequential(\n      (0): BatchNorm1d(300, eps=1e-05, momentum=0.1, affine=True, track_running_stats=True)\n      (1): Mish()\n      (2): Linear(in_features=300, out_features=300, bias=True)\n      (3): BatchNorm1d(300, eps=1e-05, momentum=0.1, affine=True, track_running_stats=True)\n      (4): Mish()\n      (5): Linear(in_features=300, out_features=300, bias=True)\n    )\n    (h_reason): Sequential()\n    (video_GU): ModuleList(\n      (0): GatedEmbeddingUnitReasoning(\n        (cg): ContextGatingReasoning(\n          (fc): Linear(in_features=300, out_features=300, bias=True)\n          (batch_norm): BatchNorm1d(300, eps=1e-05, momentum=0.1, affine=True, track_running_stats=True)\n          (batch_norm2): BatchNorm1d(300, eps=1e-05, momentum=0.1, affine=True, track_running_stats=True)\n        )\n      )\n      (1): GatedEmbeddingUnitReasoning(\n        (cg): ContextGatingReasoning(\n          (fc): Linear(in_features=300, out_features=300, bias=True)\n          (batch_norm): BatchNorm1d(300, eps=1e-05, momentum=0.1, affine=True, track_running_stats=True)\n          (batch_norm2): BatchNorm1d(300, eps=1e-05, momentum=0.1, affine=True, track_running_stats=True)\n        )\n      )\n      (2): GatedEmbeddingUnitReasoning(\n        (cg): ContextGatingReasoning(\n          (fc): Linear(in_features=300, out_features=300, bias=True)\n          (batch_norm): BatchNorm1d(300, eps=1e-05, momentum=0.1, affine=True, track_running_stats=True)\n          (batch_norm2): BatchNorm1d(300, eps=1e-05, momentum=0.1, affine=True, track_running_stats=True)\n        )\n      )\n    )\n    (text_GU): ModuleList(\n      (0): GatedEmbeddingUnit(\n        (fc): Linear(in_features=8400, out_features=300, bias=True)\n        (cg): ContextGating(\n          (fc): Linear(in_features=300, out_features=300, bias=True)\n          (batch_norm): BatchNorm1d(300, eps=1e-05, momentum=0.1, affine=True, track_running_stats=True)\n        )\n      )\n      (1): GatedEmbeddingUnit(\n        (fc): Linear(in_features=8400, out_features=300, bias=True)\n        (cg): ContextGating(\n          (fc): Linear(in_features=300, out_features=300, bias=True)\n          (batch_norm): BatchNorm1d(300, eps=1e-05, momentum=0.1, affine=True, track_running_stats=True)\n        )\n      )\n      (2): GatedEmbeddingUnit(\n        (fc): Linear(in_features=8400, out_features=300, bias=True)\n        (cg): ContextGating(\n          (fc): Linear(in_features=300, out_features=300, bias=True)\n          (batch_norm): BatchNorm1d(300, eps=1e-05, momentum=0.1, affine=True, track_running_stats=True)\n        )\n      )\n    )\n  )\n)\nTrainable parameters: 9744325\nrefreshing cache for Charades data loader [full-val]\nloading training/val splits....\nConfigure train test split file path ../data/charades/noun_verb/train_list_full.txt\nConfigure train test split file path ../data/charades/noun_verb/val_list_full.txt\ndone in 0
…
